…
**** Total : Test samples: ****

--->Result for data = test , samples (34 Arrhythmic, 26 Normal)
		tp = 32.000000, tn = 18.400000, fp = 7.600000, fn = 2.000000, Accuracy-> 0.840000, recall-> 0.941176,  precision-> 0.821124


test   0.850000, 
test   0.816667, 
test   0.816667, 
test   0.983333, 
test   0.733333, 


train 0.950617, 
train 0.967078, 
train 0.946502, 
train 0.938272, 
train 0.942387, 
_________________________________________________________________
Layer (type)                 Output Shape              Param #   
=================================================================
conv1d_13 (Conv1D)           (None, 2500, 16)          1296      
_________________________________________________________________
batch_normalization_17 (Batc (None, 2500, 16)          64        
_________________________________________________________________
activation_21 (Activation)   (None, 2500, 16)          0         
_________________________________________________________________
max_pooling1d_9 (MaxPooling1 (None, 1250, 16)          0         
_________________________________________________________________
dropout_17 (Dropout)         (None, 1250, 16)          0         
_________________________________________________________________
conv1d_14 (Conv1D)           (None, 1250, 16)          20496     
_________________________________________________________________
batch_normalization_18 (Batc (None, 1250, 16)          64        
_________________________________________________________________
activation_22 (Activation)   (None, 1250, 16)          0         
_________________________________________________________________
dropout_18 (Dropout)         (None, 1250, 16)          0         
_________________________________________________________________
conv1d_15 (Conv1D)           (None, 1250, 16)          20496     
_________________________________________________________________
batch_normalization_19 (Batc (None, 1250, 16)          64        
_________________________________________________________________
activation_23 (Activation)   (None, 1250, 16)          0         
_________________________________________________________________
max_pooling1d_10 (MaxPooling (None, 625, 16)           0         
_________________________________________________________________
dropout_19 (Dropout)         (None, 625, 16)           0         
_________________________________________________________________
flatten_5 (Flatten)          (None, 10000)             0         
_________________________________________________________________
dense_9 (Dense)              (None, 1)                 10001     
_________________________________________________________________
activation_24 (Activation)   (None, 1)                 0         
=================================================================
Total params: 52,481
Trainable params: 52,385
Non-trainable params: 96
_________________________________________________________________
_________________________________________________________________
Layer (type)                 Output Shape              Param #   
=================================================================
lstm_5 (LSTM)                (None, 3)                 60        
_________________________________________________________________
batch_normalization_20 (Batc (None, 3)                 12        
_________________________________________________________________
p_re_lu_5 (PReLU)            (None, 3)                 3         
_________________________________________________________________
dropout_20 (Dropout)         (None, 3)                 0         
_________________________________________________________________
dense_10 (Dense)             (None, 1)                 4         
_________________________________________________________________
activation_25 (Activation)   (None, 1)                 0         
=================================================================
Total params: 79
Trainable params: 73
Non-trainable params: 6
_________________________________________________________________
Thesis  - 95.05.19  raw+CNN+RNN(LSTM)  1 :))) 

'''
