…
**** Total : Test samples: ****

--->Result for data = test , samples (34 Arrhythmic, 26 Normal)
		tp = 30.000000, tn = 16.600000, fp = 9.400000, fn = 4.000000, Accuracy-> 0.776667, recall-> 0.882353,  precision-> 0.775253


test   0.816667, 
test   0.633333, 
test   0.716667, 
test   1.000000, 
test   0.716667, 


train 0.991770, 
train 0.950617, 
train 0.987654, 
train 0.995885, 
train 0.995885, 
_________________________________________________________________
Layer (type)                 Output Shape              Param #   
=================================================================
lstm_5 (LSTM)                (None, 3)                 60        
_________________________________________________________________
batch_normalization_5 (Batch (None, 3)                 12        
_________________________________________________________________
p_re_lu_5 (PReLU)            (None, 3)                 3         
_________________________________________________________________
dropout_5 (Dropout)          (None, 3)                 0         
_________________________________________________________________
dense_5 (Dense)              (None, 1)                 4         
_________________________________________________________________
activation_5 (Activation)    (None, 1)                 0         
=================================================================
Total params: 79
Trainable params: 73
Non-trainable params: 6
_________________________________________________________________
WAV   db4,  level 8 & #coefficients = 4
Thesis  - 95.05.19  wav+DT+RNN  1 :))) 
'''
